Overriding model.yaml nc=80 with nc=5
                 from  n    params  module                                  arguments
  0                -1  1      1760  models.common.Conv                      [3, 16, 6, 2, 2]
  1                -1  1      4672  models.common.Conv                      [16, 32, 3, 2]
  2                -1  1      4800  models.common.C3                        [32, 32, 1]
  3                -1  1     18560  models.common.Conv                      [32, 64, 3, 2]
  4                -1  2     29184  models.common.C3                        [64, 64, 2]
  5                -1  1     73984  models.common.Conv                      [64, 128, 3, 2]
  6                -1  3    156928  models.common.C3                        [128, 128, 3]
  7                -1  1    295424  models.common.Conv                      [128, 256, 3, 2]
  8                -1  1    296448  models.common.C3                        [256, 256, 1]
  9                -1  1    164608  models.common.SPPF                      [256, 256, 5]
 10                -1  1     33024  models.common.Conv                      [256, 128, 1, 1]
 11                -1  1         0  torch.nn.modules.upsampling.Upsample    [None, 2, 'nearest']
 12           [-1, 6]  1         0  models.common.Concat                    [1]
 13                -1  1     90880  models.common.C3                        [256, 128, 1, False]
 14                -1  1      8320  models.common.Conv                      [128, 64, 1, 1]
 15                -1  1         0  torch.nn.modules.upsampling.Upsample    [None, 2, 'nearest']
 16           [-1, 4]  1         0  models.common.Concat                    [1]
 17                -1  1     22912  models.common.C3                        [128, 64, 1, False]
 18                -1  1     36992  models.common.Conv                      [64, 64, 3, 2]
 19          [-1, 14]  1         0  models.common.Concat                    [1]
 20                -1  1     74496  models.common.C3                        [128, 128, 1, False]
 21                -1  1    147712  models.common.Conv                      [128, 128, 3, 2]
 22          [-1, 10]  1         0  models.common.Concat                    [1]
 23                -1  1    296448  models.common.C3                        [256, 256, 1, False]
 24      [17, 20, 23]  1     21648  models.yolo.Detect                      [5, [[10, 13, 16, 30, 33, 23], [30, 61, 62, 45, 59, 119], [116, 90, 156, 198, 373, 326]], [64, 128, 256], 5, 2, 3]
E:\anaconda\envs\YOLOwind\lib\site-packages\torch\functional.py:504: UserWarning: torch.meshgrid: in an upcoming release, it will be required to pass the indexing argument. (Triggered internally at C:\cb\pytorch_1000000000000\work\aten\src\ATen\native\TensorShape.cpp:3484.)
…
